…
2023-05-08 17:57:59.647397: I tensorflow/compiler/jit/xla_gpu_device.cc:99] Not creating XLA devices, tf_xla_enable_xla_devices not set
2023-05-08 17:57:59.647546: I tensorflow/core/common_runtime/gpu/gpu_device.cc:1261] Device interconnect StreamExecutor with strength 1 edge matrix:
2023-05-08 17:57:59.647608: I tensorflow/core/common_runtime/gpu/gpu_device.cc:1267]
Model: "model"
_________________________________________________________________
Layer (type)                 Output Shape              Param #
=================================================================
input_1 (InputLayer)         [(None, 66)]              0
_________________________________________________________________
dropout (Dropout)            (None, 66)                0
_________________________________________________________________
dense (Dense)                (None, 660)               44220
_________________________________________________________________
activation (Activation)      (None, 660)               0
_________________________________________________________________
dropout_1 (Dropout)          (None, 660)               0
_________________________________________________________________
dense_1 (Dense)              (None, 660)               436260
_________________________________________________________________
activation_1 (Activation)    (None, 660)               0
_________________________________________________________________
dropout_2 (Dropout)          (None, 660)               0
_________________________________________________________________
dense_2 (Dense)              (None, 660)               436260
_________________________________________________________________
activation_2 (Activation)    (None, 660)               0
_________________________________________________________________
dropout_3 (Dropout)          (None, 660)               0
_________________________________________________________________
dense_3 (Dense)              (None, 660)               436260
_________________________________________________________________
activation_3 (Activation)    (None, 660)               0
_________________________________________________________________
dropout_4 (Dropout)          (None, 660)               0
_________________________________________________________________
dense_4 (Dense)              (None, 660)               436260
_________________________________________________________________
activation_4 (Activation)    (None, 660)               0
_________________________________________________________________
dropout_5 (Dropout)          (None, 660)               0
_________________________________________________________________
dense_5 (Dense)              (None, 660)               436260
_________________________________________________________________
activation_5 (Activation)    (None, 660)               0
_________________________________________________________________
dropout_6 (Dropout)          (None, 660)               0
_________________________________________________________________
dense_6 (Dense)              (None, 1)                 661
=================================================================
Total params: 2,226,181
Trainable params: 2,226,181
Non-trainable params: 0
_________________________________________________________________
2023-05-08 17:57:59.846987: I tensorflow/compiler/mlir/mlir_graph_optimization_pass.cc:116] None of the MLIR optimization passes are enabled (registered 2)
2023-05-08 17:57:59.847630: I tensorflow/core/platform/profile_utils/cpu_utils.cc:112] CPU Frequency: 2591995000 Hz
…
